python/model_mono.pth (torch, 442807 bytes, 6 tensors)

net.0.weight f4 [128, 548]
0	0x3ea2e0b3	0.31812057
1	0x3ea3ae4e	0.3196892
2	0x3f03dbf4	0.51507497
3	0x3f1d3b6a	0.61418784
4	0x3f218fed	0.6311024
5	0x3f6a343f	0.9148597
6	0x3ead31aa	0.33826953
7	0x3e6ae090	0.22937226
8	0x3de89b04	0.11357692
9	0x3e52c183	0.20581631
10	0x3eacb739	0.33733538
11	0x3dd7596e	0.10515104
12	0x3e95f040	0.2928486
13	0x3de985cd	0.114024736
14	0x3cdb133b	0.026742568
15	0x3eac2199	0.33619383
16	0x3ebe0067	0.37109682
17	0x3e3aaead	0.18230696
18	0x3e0fcabb	0.1404218
19	0x3e82fd3f	0.25583836
20	0x3ecf3859	0.40472677
21	0x3e06d770	0.1316812
22	0x3dc2ebf1	0.095176585
23	0xbd87e2d4	-0.06635061
24	0x3e1629a8	0.14664328
25	0x3ea557d0	0.32293558
26	0x3e34caef	0.17655538
27	0x3d2c481a	0.04206095
28	0x3d97001e	0.07373069
29	0x3ce94ba3	0.02847845
30	0xbde41b3e	-0.111380085
31	0xbd822391	-0.0635444
32	0xbe45e366	-0.19325027
33	0x3dd34333	0.103155516
34	0x3d9fe292	0.07806887
35	0x3ed824d6	0.42215604
36	0x3e41d731	0.18929745
37	0x3e668a77	0.22513758
38	0x3ec1c77f	0.37847516
39	0x3f3f205b	0.74658746
40	0x3e9e0396	0.3086211
41	0x3e0f8c69	0.14018406
42	0x3ec199a3	0.37812528
43	0x3d5bcca9	0.053661976
44	0x3e44f439	0.19233789
45	0x3ea0b7c8	0.31390214
46	0xbdd5fd6b	-0.10448726
47	0xbd7b325c	-0.061327323
48	0x3d232fa6	0.039840363
49	0x3de95e1c	0.11394903
50	0x3d8f913a	0.07010122
51	0x3e1e83b9	0.15479936
52	0x3c80ed4f	0.015738158
53	0x3c646d70	0.013942108
54	0xbe45a92b	-0.19302814
55	0x3d30aba9	0.043132458
56	0xbd95759b	-0.07297822
57	0xbe1cd4b5	-0.15315516
58	0xbe3a9466	-0.18220672
59	0xbe08581d	-0.13314863
60	0x3d37809d	0.04480039
61	0x3e4d99db	0.20078222
62	0x3e443de7	0.19164239
63	0x3ed4e1d4	0.41578543
64	0x3e4b89d5	0.19876797
65	0x3e6f84f0	0.23390555
66	0x3ecdc8d4	0.40192282
67	0x3eb68d57	0.3565471
68	0x3f33e85d	0.70276433
69	0x3edd127e	0.4317817
70	0x3f393b6e	0.7235631
71	0x3f5d6c45	0.8649333
72	0x3ef8946e	0.48550743
73	0x3f44746c	0.76740146
74	0x3f33483b	0.7003209
75	0x3ec2e0e3	0.380622
76	0x3f24686d	0.6422184
77	0x3ea5fb42	0.32418257
78	0x3e8cc400	0.27493286
79	0x3e835d9f	0.25657365
80	0x3e8ff867	0.28119203
81	0xbe09ebb3	-0.13468818
82	0x3eb79d60	0.35862255
83	0x3f110b9d	0.56658345
84	0x3ea844c5	0.32864967
85	0x3ebc229e	0.3674516
86	0x3e89ba7a	0.26900083
87	0x3eed5a3d	0.4635791
88	0x3eca6ed3	0.39537677
89	0x3e607064	0.21917874
90	0x3dbf638d	0.0934516
91	0x3ec5cc27	0.38632318
92	0x3e3bed2b	0.18352191
93	0x3e9c406a	0.30517894
94	0x3e388155	0.18018086
95	0x3e9a1ce4	0.30100167
96	0x3edc53aa	0.4303258
97	0x3ec2926f	0.38002345
98	0x3f00c59e	0.5030154
99	0x3f01b43a	0.5066563
100	0x3f094da2	0.53634083
101	0x3f1db77f	0.6160812
102	0x3f5bf43a	0.85919535
103	0x3f80b592	1.0055411
104	0x3fa04918	1.2522306
105	0x3fad4a73	1.3538345
106	0x3f7507ab	0.95714825
107	0x3ecd4a40	0.4009571
108	0x3f1a4a3b	0.60269517
109	0x3e90e91b	0.28302845
110	0x3f4b5c62	0.7943784
111	0x3f024f33	0.509021
112	0xbed96ed9	-0.42467383
113	0x3f1b289a	0.6060883
114	0x3b01c134	0.0019798996
115	0x3ef145cc	0.47123563
116	0x3dc4c211	0.09607328
117	0x3f1487a6	0.58019483
118	0x3f7ec0f6	0.99513185
119	0x3fbb03d4	1.4610543
120	0x3fa5984d	1.2937104
121	0x3fee8841	1.8635331
122	0x3d4e20bb	0.050324183
123	0xbd7f64f7	-0.062352147
124	0xbde98feb	-0.11404403
125	0x3e628baa	0.2212359
126	0x3ebb325d	0.36561862
127	0x3f223172	0.633567
128	0xbe2361ad	-0.15955229
129	0x3fa47471	1.2848035
130	0x3ed7cae3	0.42146978
131	0x3f7768dd	0.96644384
132	0x40118666	2.273828
133	0x3f3d8a85	0.7403949
134	0x3dc16d75	0.094447054
135	0x3fdf058d	1.7423569
136	0xbd848d05	-0.0647221
137	0xbcef50e4	-0.029213376
138	0x3e815c3f	0.2526569
139	0x3e9661b2	0.2937141
140	0x3edf44b3	0.436071
141	0x3f8a58f8	1.0808401
142	0xbeac157f	-0.3361015
143	0xbeadfd15	-0.3398215
144	0xbe8b444b	-0.2720054
145	0xbded2b50	-0.11580527
146	0xbe5fc935	-0.21854098
147	0xbd8810e2	-0.06643845
148	0xbe5e8c43	-0.21733193
149	0xbe5bffe2	-0.2148433
150	0xbe5342a1	-0.20630886
151	0xbe02f7fc	-0.12789911
152	0x3ca300c7	0.019897832
153	0xbe9ec66d	-0.31010762
154	0xbd8b90e9	-0.06814749
155	0x3d87e4f1	0.06635464
156	0x3ccbd5d2	0.02488223
157	0xbde1266f	-0.10993659
158	0xbe4b4fd0	-0.19854665
159	0xbeb56ef6	-0.3543622
160	0xbe85375d	-0.260188
161	0x3e56e6bb	0.20986454
162	0xbd19590e	-0.037438445
163	0x3ccc1b14	0.024915256
164	0xbcd19194	-0.025582112
165	0xbdfe8f18	-0.12429637
166	0xbe1d0641	-0.15334417
167	0xbe2861ea	-0.16443601
168	0xbee313d9	-0.4435108
169	0xbbfcbb2e	-0.0077127432
170	0xbd914ca4	-0.07094696
171	0x3d426776	0.04746195
172	0xbe03907f	-0.1284809
173	0xbdca321c	-0.09872839
174	0x3e8522f0	0.26003218
175	0xbaf4be7d	-0.0018672493
176	0x3f08b508	0.5340123
177	0xbe71a973	-0.23599796
178	0xbda2f1ae	-0.07956253
179	0xbe9d4c32	-0.30722195
180	0xbe413e86	-0.18871507
181	0xbe5095c3	-0.2036963
182	0xbe8194fa	-0.25308973
183	0xbeb0e8ff	-0.34552762
184	0xbe108c85	-0.14116104
185	0xbee5e96c	-0.4490465
186	0xbe0eab8e	-0.1393263
187	0xbe21a37d	-0.15785022
188	0xbe8259ea	-0.25459224
189	0xbecd5fbf	-0.4011211
190	0xbe2c745d	-0.16841264
191	0xbe4711c3	-0.1944037
192	0xbedd2430	-0.4319167
193	0xbea73385	-0.32656494
194	0xbe78461a	-0.24245492
195	0xbdc46e1e	-0.09591316
196	0xbec4f8e6	-0.38471144
197	0xbe19523f	-0.1497278
198	0xbec3a1f7	-0.38209507
199	0x3d7ffe26	0.062498234
200	0xbe97cbf7	-0.296478
201	0xbe3ce34b	-0.1844608
202	0xbcd1a796	-0.025592607
203	0xbe690814	-0.22756988
204	0x3daabd2d	0.08336864
205	0xbdde1b46	-0.10845046
206	0x3c9eeb16	0.019399207
207	0xbb9fae2c	-0.004873058
208	0xbe50753d	-0.20357223
209	0xbe375cbb	-0.17906468
210	0x3dec285b	0.11531135
211	0xbde0bfcb	-0.109740816
212	0xbea457e1	-0.32098296
213	0xbe95cee9	-0.29259422
214	0xbebd6880	-0.3699379
215	0xbd899bb4	-0.06719151
216	0xbe4cc4bb	-0.19996922
217	0x3e8c042f	0.27346942
218	0xbce83327	-0.028344704
219	0xbf12bb7e	-0.5731734
220	0xbedfdfc6	-0.43725413
221	0xbe6d7ffe	-0.23193356
222	0xbea7b979	-0.32758692
223	0xbf1d2ff6	-0.6140131
224	0xbe021d03	-0.1270638
225	0xbe2376f1	-0.15963341
226	0x3e51833f	0.20460223
227	0xbe4e7570	-0.20161986
228	0xbe294c0a	-0.16532913
229	0xbe93b576	-0.2884938
230	0xbe38a30d	-0.18030949
231	0xbe30f34f	-0.17280315
232	0xbc8e50c2	-0.017372493
233	0xbda0686e	-0.078324184
234	0xbd151ade	-0.036402576
235	0x3ed5934d	0.41713944
236	0xbd335633	-0.043783378
237	0xbee79834	-0.4523331
238	0xbc811b33	-0.01576004
239	0x3daa00db	0.083009444
240	0x3db7a24f	0.08966505
241	0x3e8c2680	0.27373123
242	0xbe954678	-0.29155326
243	0xbecb9bd6	-0.3976733
244	0x3e3a9069	0.1821915
245	0x3f42bca7	0.7606911
246	0xbe6fd682	-0.23421672
247	0xbde6713f	-0.11252069
248	0xbe66235a	-0.22474423
249	0xbf5badba	-0.8581196
250	0xbce2a38f	-0.027665881
251	0xbe97cba2	-0.29647547
252	0xbf6d7dbc	-0.9276998
253	0x3f2de677	0.67929786
254	0x3ea3510b	0.31897768
255	0xbed9d695	-0.42546526

net.0.bias f4 [128]
0	0x400c329e	2.1905894
1	0xc09e8552	-4.9537745
2	0x3ed77db8	0.42088103
3	0xc0f9a06e	-7.8008337
4	0x3f8dbc23	1.107304
5	0x3eff9af6	0.49922913
6	0x3fd35684	1.6510777
7	0xc0a54376	-5.164485
8	0x3fad59a0	1.3542976
9	0xc0fedc95	-7.9644265
10	0xbf2bd131	-0.67116076
11	0x3fb68895	1.4260432
12	0xbffc59cb	-1.9714903
13	0xbfcd7c9c	-1.6053653
14	0xc051b0ae	-3.2764087
15	0x3fb0e476	1.3819721
16	0x3fc2eeef	1.5229167
17	0xbf95fc2f	-1.1717585
18	0xbf5b3556	-0.8562826
19	0xbc565bd2	-0.013083415
20	0x3ec7416e	0.38917106
21	0x3fa10f07	1.2582711
22	0xbfc47450	-1.5347996
23	0xbfccb4fd	-1.5992733
24	0xc09a122f	-4.8147197
25	0xbf62ef26	-0.8864616
26	0xbfde0cd5	-1.7347666
27	0xc0a850ac	-5.2598476
28	0x3f277157	0.6540732
29	0x3f3e3800	0.743042
30	0xc0b41f09	-5.6287885
31	0x3f36e645	0.71445113
32	0xbfb81808	-1.4382334
33	0xc018f4bd	-2.3899376
34	0x3f17c8b3	0.5929062
35	0x3f0421af	0.516139
36	0x3fdd7413	1.7301048
37	0xbee838dc	-0.4535588
38	0x3eac9f2f	0.33715197
39	0xbfc5bd64	-1.5448422
40	0xc01a3bec	-2.4099073
41	0x3eba622c	0.36403024
42	0xc0be30f1	-5.9434743
43	0xbe86a85c	-0.26300323
44	0xbef413f5	-0.47671476
45	0xbf6d3d1f	-0.9267139
46	0x3f483616	0.7820753
47	0x3ddc42dd	0.10754941
48	0x3d31f7c0	0.043449163
49	0x3fc44ae9	1.5335361
50	0xbff0242a	-1.8761036
51	0x3ff6007d	1.9218899
52	0x3f4301de	0.76174724
53	0x3fc2d0ed	1.5220009
54	0x3e8270ac	0.25476587
55	0xbfb13f45	-1.3847433
56	0xc11637cb	-9.388621
57	0xbf2915d7	-0.6604895
58	0xbfe010ca	-1.7505124
59	0xc00a4a67	-2.1607912
60	0xbf7c8c50	-0.986516
61	0x3e52d837	0.20590292
62	0xbf0368b7	-0.5133166
63	0xc04929a1	-3.1431658
64	0xbf8bf9e1	-1.0935632
65	0xbef55978	-0.47919822
66	0x3e26ff97	0.16308437
67	0xbea99e65	-0.33128658
68	0xbf506bbc	-0.8141439
69	0xbf756258	-0.95853186
70	0xc0156699	-2.334387
71	0xbf3bdcce	-0.73383796
72	0xbf077efe	-0.5292815
73	0xbf474bbb	-0.7784993
74	0xbcf7af00	-0.030234814
75	0xbea1207a	-0.3147009
76	0xbfc133cb	-1.5093931
77	0xbf2b5141	-0.6692086
78	0xbfd5bdeb	-1.6698583
79	0xbf0c3e19	-0.54782254
80	0xbf931855	-1.14918
81	0x3eed8a61	0.46394637
82	0x3f444a78	0.7667613
83	0x3f641b0f	0.8910379
84	0x3d5e6917	0.05429944
85	0xbf68d6e4	-0.909529
86	0xbe77fec4	-0.24218279
87	0xbf64c9e8	-0.89370584
88	0xbfda088b	-1.7033857
89	0xbf58ea14	-0.84732175
90	0xc00d2750	-2.2055244
91	0xbf66dc9b	-0.9018037
92	0xbeb0ce43	-0.34532365
93	0xbf2273d1	-0.6345797
94	0xbf4a63a3	-0.79058284
95	0xbf4c1bf2	-0.7973014
96	0xbed01653	-0.40642032
97	0xbf7dd6a4	-0.9915564
98	0xbece0f04	-0.4024583
99	0x3f121321	0.5706044
100	0xbf0a4689	-0.5401388
101	0xbdd3f278	-0.103489816
102	0xbea1c0c0	-0.3159237
103	0x3eb7119f	0.3575563
104	0xc0da3559	-6.819012
105	0xbf92329c	-1.1421695
106	0xbe20dedd	-0.15710016
107	0xbf8a6b7f	-1.0814055
108	0xbfca3f24	-1.5800519
109	0x3fe45f26	1.7841537
110	0x3fab815c	1.3398852
111	0xbe18b194	-0.1491149
112	0x3ee097ec	0.43865907
113	0xbf383dca	-0.7196928
114	0xbf82bb85	-1.0213476
115	0x3dba0b8a	0.09084232
116	0xbf721a01	-0.9457093
117	0xbfa267bd	-1.2687908
118	0xbe28948e	-0.16462919
119	0xbfeabdc4	-1.8339162
120	0xc06ee4ab	-3.7327068
121	0xbeabd713	-0.33562526
122	0x3e9b39d9	0.30317572
123	0xbfab8173	-1.339888
124	0x3e24761a	0.16060677
125	0xbeff1ae8	-0.49825215
126	0xbf2f0037	-0.683597
127	0x3eaab60e	0.33342022

net.2.weight f4 [128, 128]
0	0xbffe46a8	-1.9865313
1	0x40c3b494	6.115793
2	0xbfa08af4	-1.2542405
3	0x416a3db6	14.640066
4	0xbf9d109b	-1.2270693
5	0xbfa7c639	-1.3107368
6	0xbfaa09fc	-1.3284297
7	0x40be2e54	5.9431553
8	0xbf270b66	-0.6525177
9	0x410cd37c	8.801632
10	0x3fdc7b9b	1.7225221
11	0xc00ca3f4	-2.197507
12	0xbedff466	-0.4374115
13	0xbee6b621	-0.45060828
14	0x407bc500	3.933899
15	0xbeef1f38	-0.46703506
16	0xbe4f06b0	-0.20217395
17	0x40c54346	6.164462
18	0x402dc079	2.7148726
19	0x401f6002	2.4902349
20	0x3fcf1acd	1.6180054
21	0xbfebed4f	-1.8431796
22	0x401b690f	2.4282873
23	0x3fe691c0	1.8013229
24	0x41246fc8	10.27729
25	0x3fa029bc	1.2512736
26	0x40b47d4a	5.640294
27	0x4131fda3	11.124423
28	0xbfb3d341	-1.4048845
29	0xbf205934	-0.62636113
30	0x40d95ad5	6.792338
31	0x3cc1bea3	0.023650473
32	0x3ee16e72	0.44029576
33	0x3f86fe5f	1.0546378
34	0xc01f05af	-2.484722
35	0xbe6248ce	-0.22098085
36	0xbfc1b82e	-1.5134332
37	0x401c40a4	2.4414454
38	0xbf36198a	-0.7113272
39	0x3f8e84db	1.1134294
40	0x40b7c0ce	5.7422857
41	0x3fbe4a05	1.4866339
42	0x3f3e42cc	0.74320674
43	0xbec1c22f	-0.37843463
44	0xbe917c27	-0.28415033
45	0x3f61c7ed	0.8819569
46	0x3d7bbb20	0.061457753
47	0x40116faf	2.2724416
48	0xbf3af97c	-0.7303693
49	0xc036b595	-2.854833
50	0x40f5af7e	7.6776724
51	0x3e94e0fc	0.290779
52	0xbf95b4f9	-1.1695853
53	0xc003ad91	-2.0574687
54	0xbfdc2382	-1.7198336
55	0x4027ab20	2.6198196
56	0x40117b88	2.2731647
57	0x3e94e94a	0.29084235
58	0x40eb6aef	7.3568034
59	0x404beb1d	3.1862252
60	0xbf22108c	-0.633065
61	0x409611e8	4.689686
62	0x3f793bc6	0.9735683
63	0x3f90bb9b	1.1307253
64	0x409e9a78	4.956356
65	0xbff1378c	-1.8845077
66	0xbf665326	-0.89970624
67	0xbeb28dbc	-0.3487376
68	0x402b8f60	2.680626
69	0x3eef702c	0.46765268
70	0x40b736c5	5.7254357
71	0x4088aed1	4.27134
72	0x4092243a	4.566922
73	0xbf76f92c	-0.96473956
74	0x3f08296b	0.531882
75	0x3de56450	0.11200774
76	0x403b28d7	2.9243677
77	0x3f205876	0.6263498
78	0x402c4efd	2.692321
79	0xbfcd9908	-1.6062326
80	0xbf120932	-0.5704528
81	0xbedd335b	-0.43203244
82	0xc003c0b6	-2.0586371
83	0xbff6bac8	-1.9275751
84	0xbf2d2371	-0.67632204
85	0x4003a4d2	2.0569348
86	0x3eafbff9	0.3432615
87	0x40806002	4.0117197
88	0x4026006b	2.5937755
89	0x40801888	4.0029945
90	0x3f99b76a	1.2009099
91	0x408e3f2a	4.4452105
92	0x401aaf0f	2.4169347
93	0xc01c243a	-2.439711
94	0xbf2e6c1d	-0.6813372
95	0x40431444	3.048112
96	0xbfa18deb	-1.2621435
97	0xc03c9a04	-2.9469004
98	0x3fc68e79	1.5512229
99	0xbf802d09	-1.0013744
100	0x3e2aec12	0.16691616
101	0x3fae8c01	1.3636476
102	0xbf0b80f2	-0.5449363
103	0xbfa2fced	-1.2733437
104	0x40e9447d	7.2896104
105	0xbfce519b	-1.6118654
106	0x405e7173	3.4756744
107	0x3f3ab6ec	0.72935367
108	0x407499b2	3.8218808
109	0xbf337152	-0.7009479
110	0xbf256f9e	-0.6462344
111	0x3ffde989	1.9836894
112	0x40208213	2.507939
113	0xc008ba36	-2.1363654
114	0x3fe87c7d	1.8162991
115	0x3e80d087	0.25159094
116	0x3f074615	0.5284131
117	0x401edc78	2.4822063
118	0xbed6ee3b	-0.4197863
119	0x3ff4ac53	1.9115089
120	0x3f49d994	0.7884762
121	0xc017fc0d	-2.374759
122	0xbf3acd14	-0.72969174
123	0x401986f9	2.398863
124	0x3da9187b	0.082566224
125	0x3f854ceb	1.0414099
126	0x3fbbb1a9	1.4663593
127	0x3f3669c0	0.7125511
128	0x3c09e39f	0.0084160855
129	0xbd2b6c9a	-0.041851617
130	0xbd53fb79	-0.051753495
131	0xbd981e89	-0.07427699
132	0xbe03c1c5	-0.12866886
133	0x3cfc9765	0.03083391
134	0xbc893be6	-0.016752195
135	0xbbdc3718	-0.006720435
136	0x3d3d3bbb	0.04619954
137	0xbdc309e7	-0.09523373
138	0xbb304691	-0.002689753
139	0xbd7ddf83	-0.061980736
140	0x3ce37000	0.027763367
141	0x3d838cef	0.06423365
142	0xbd0d564b	-0.034506124
143	0x3c3735b5	0.011182238
144	0xbe074d8d	-0.13213177
145	0xbdb8ab52	-0.09017052
146	0xbdd4837d	-0.10376642
147	0xbd165443	-0.036701452
148	0x3d2f19e1	0.04274929
149	0x3d21af8a	0.039474048
150	0xbd80177f	-0.062544815
151	0x3cd28ec0	0.025702834
152	0x3cd79649	0.026316779
153	0x3bb1be53	0.0054242997
154	0x3d934d94	0.07192531
155	0xbd02f956	-0.031976067
156	0xbde21f86	-0.11041169
157	0xbd7c93cb	-0.061664384
158	0xbcd3f8f6	-0.02587555
159	0xbd9565b9	-0.07294793
160	0x3c11ff20	0.008910924
161	0xbdba3ed4	-0.09094015
162	0xbd683c7e	-0.056698315
163	0xbd1f9529	-0.03896061
164	0x3be84de7	0.007089365
165	0xbd57aa2c	-0.052652523
166	0xbd5730eb	-0.052536886
167	0x3d6140d9	0.054993484
168	0xbd0c35ba	-0.034230925
169	0x3d66b6ae	0.05632656
170	0xbdc22db4	-0.094813734
171	0xbd9e525e	-0.07730554
172	0x3cd85ba9	0.026410894
173	0xbc6492d4	-0.013951022
174	0xbda7aba4	-0.08187035
175	0xbd0d9fd2	-0.034576245
176	0xbd9765f0	-0.0739249
177	0x3cd60f59	0.026130365
178	0xbd209031	-0.03920001
179	0xbd9e58dc	-0.07731792
180	0xbdec2980	-0.11531353
181	0xbd325abb	-0.04354356
182	0x3c9a8b1f	0.018865166
183	0x3d4c04c6	0.04980924
184	0x3b5ecc8e	0.0033996436
185	0xbda812a8	-0.082066834
186	0xbd1028ed	-0.03519528
187	0xbd2b8c84	-0.041882053
188	0xbd1834fe	-0.037159912
189	0x3a9b080c	0.001182796
190	0x3cc1f0f6	0.02367447
191	0x3d03fbf4	0.032222703
192	0xbdcc5707	-0.09977537
193	0x3ca2a5ed	0.01985451
194	0x3cae9789	0.021312492
195	0x3bd6d812	0.0065565193
196	0xbdf16ac2	-0.117879406
197	0x3d1c7d88	0.038205653
198	0xbd823f2f	-0.063597076
199	0x3c8f8989	0.017521637
200	0xbcfd6e72	-0.030936453
201	0x3d554b61	0.05207384
202	0xbb82b32b	-0.0039886436
203	0xbbb817d7	-0.0056180763
204	0xbdd519f2	-0.10405339
205	0xbd0bdf42	-0.034148462
206	0xbd70fd78	-0.058835477
207	0x3d4d17f5	0.050071675
208	0xbd17ca69	-0.037058268
209	0xbd286751	-0.041114155
210	0xbdbb0c23	-0.09133174
211	0xbddb6322	-0.107122675
212	0xbdc37c25	-0.09545163
213	0xbcad5990	-0.02116087
214	0xbd250e2a	-0.04029671
215	0x3d52ddda	0.051481105
216	0xbdf2b6cb	-0.11851271
217	0x3d4e3ff6	0.050353967
218	0x3d0332d1	0.032030884
219	0x3cc87f41	0.024474742
220	0x3c934a89	0.017979877
221	0xbd9acc1a	-0.075584605
222	0xbdc376cd	-0.09544144
223	0xbda22794	-0.07917705
224	0xbdb74999	-0.089495845
225	0xbc96acd4	-0.018392958
226	0xbdb7a643	-0.08967259
227	0x3d0a604c	0.033783242
228	0xbd86b782	-0.0657797
229	0xbcc1d22d	-0.02365979
230	0xbddba1a6	-0.10724191
231	0x3ceb6ba9	0.02873786
232	0x3cda92a7	0.026681257
233	0x3c5d4fb1	0.013507769
234	0xbc8e73be	-0.017389175
235	0x3d390106	0.04516699
236	0xbdf5f195	-0.12008969
237	0xbd49308b	-0.04911856
238	0x3d1a74ec	0.03770916
239	0xbcac9664	-0.021067806
240	0xbd0ed116	-0.03486737
241	0xbc413ea9	-0.0117947245
242	0x3b9f5643	0.004862578
243	0x3bb0e548	0.005398426
244	0xbde20b43	-0.11037304
245	0xbc3b68ec	-0.01143859
246	0xbd9c768e	-0.076398
247	0xbd1639ab	-0.03667609
248	0xbccee10c	-0.025253795
249	0xbddf5170	-0.10904205
250	0xbdd7f4ba	-0.10544725
251	0x3cafae6d	0.021445477
252	0xbc9849fb	-0.018589964
253	0xbd99b058	-0.07504338
254	0xbd43c9cb	-0.047799867
255	0x3d4f41fc	0.050600037

net.2.bias f4 [128]
0	0xc06c3349	-3.6906302
1	0xbd20ac76	-0.03922697
2	0xbde5de66	-0.1122406
3	0xbf19a000	-0.60009766
4	0xbe12bef9	-0.14330663
5	0xbe76542c	-0.24055547
6	0xbda0934d	-0.078405954
7	0x3e71f9c6	0.23630437
8	0xbd410db5	-0.047132213
9	0xbe07e22e	-0.13269874
10	0xbeda4436	-0.42630166
11	0xbf03978f	-0.51403135
12	0xc00fe7cf	-2.2485235
13	0xc02d2dc3	-2.705918
14	0xc018d66f	-2.388088
15	0x3e5c6059	0.21521129
16	0x3f0fb4ec	0.5613544
17	0xbece9b82	-0.40353018
18	0x3ed96a13	0.4246374
19	0xbf2ec740	-0.6827278
20	0x3ed085ca	0.40727073
21	0xbe186d08	-0.14885342
22	0x3f0bd76e	0.54625595
23	0x3c5496c5	0.012975399
24	0x3e8cb854	0.2748438
25	0xbd9ccdbe	-0.0765643
26	0xc02e038b	-2.7189662
27	0xbe9d2854	-0.3069483
28	0xbe69f812	-0.22848538
29	0xbdb8004b	-0.08984431
30	0xbcf75b00	-0.03019476
31	0xbee4527b	-0.44594178
32	0xbd3c66f6	-0.04599663
33	0xbea37854	-0.3192774
34	0xbd949892	-0.07255663
35	0x3d8e3d9c	0.06945345
36	0xbf8a1d24	-1.0790143
37	0x3e2d1c39	0.16905297
38	0xbe899b92	-0.26876503
39	0x3eb2d7a4	0.34930146
40	0xbf5c7e2d	-0.8613003
41	0xbeb8e6c6	-0.36113566
42	0xbfcf5db8	-1.6200476
43	0x3d277d94	0.040891245
44	0xbf4b74d7	-0.7947516
45	0x3e3e067b	0.1855716
46	0xbf20dd1f	-0.62837404
47	0xc0192876	-2.3930945
48	0xbff1fc92	-1.8905203
49	0xbf37cc50	-0.7179613
50	0xbd25424a	-0.04034642
51	0x3d43264f	0.047643956
52	0x3cb78af3	0.022405123
53	0x3c48e476	0.012261501
54	0xbef975e4	-0.48722756
55	0xbf080f36	-0.5314821
56	0xbed6d308	-0.4195788
57	0x3f874b1e	1.0569799
58	0xbfc631f8	-1.5483999
59	0xbe50aa3a	-0.20377436
60	0x3dfc9eb3	0.12334957
61	0xbe9352d7	-0.2877414
62	0xbdc987a3	-0.09840324
63	0x3e2c2cf6	0.16814026
64	0xbdaf1efe	-0.08550833
65	0xbe136597	-0.14394222
66	0xc005a698	-2.088293
67	0xbe36e83e	-0.17862031
68	0xbfa13f25	-1.2597395
69	0xbd226666	-0.039648436
70	0x3cbe7439	0.023248779
71	0x3d6cec95	0.05784281
72	0x3de6171c	0.112348765
73	0xbdca51c2	-0.09878875
74	0x3ca5f6a3	0.020259207
75	0xbf25d8b9	-0.6478382
76	0x3ee3e4e1	0.44510558
77	0x3f13d6e7	0.5774979
78	0xbfa153c3	-1.2603687
79	0x3d80a5ac	0.062815994
80	0x3c2920a3	0.010322723
81	0xbfc92f93	-1.5717643
82	0xbfb84d0a	-1.439851
83	0xbfa9dd02	-1.3270571
84	0x3c8d7904	0.017269619
85	0xbeeb357e	-0.4593925
86	0x3c212ea8	0.009837784
87	0xbf98bdfc	-1.1932979
88	0xbb7e24cf	-0.0038779264
89	0x3c47ccee	0.012194855
90	0xbf979baf	-1.1844386
91	0xbe9bfd44	-0.30466664
92	0x3eb083f7	0.3447568
93	0xbe37569d	-0.17904134
94	0xbf0237db	-0.5086648
95	0xbfd0bbe3	-1.6307338
96	0xbfa98a8a	-1.3245404
97	0xbdc0e100	-0.09417915
98	0xbf801428	-1.0006151
99	0xc039a712	-2.9008222
100	0xbf693cbc	-0.911083
101	0x3dbc5c9a	0.0919735
102	0xbf2aeafe	-0.6676482
103	0x3c2f7590	0.010709181
104	0xbdb5756f	-0.08860289
105	0xbc51157f	-0.012761473
106	0xc05ef0ad	-3.4834397
107	0xbdd0edcd	-0.10201607
108	0xbf578180	-0.84181976
109	0xbf54bd7c	-0.8310163
110	0xbf7d00f1	-0.9882956
111	0xbf64221a	-0.89114535
112	0x3c59b569	0.01328788
113	0xbf540238	-0.82815886
114	0xc03de364	-2.9670038
115	0xbfcecd62	-1.6156428
116	0xc0791280	-3.8917542
117	0xc005a4fd	-2.088195
118	0xc0671ed2	-3.6112561
119	0xbe98e898	-0.29864955
120	0xbecb0b92	-0.39657265
121	0x3e398104	0.18115622
122	0x3f4c5de1	0.7983075
123	0x3ce9424f	0.028474001
124	0x3f6132a2	0.87967885
125	0xbe75aa50	-0.2399075
126	0xbeb6041e	-0.35550016
127	0xbcb6e9bb	-0.022328248

net.4.weight f4 [181, 128]
0	0xc0ad8d3a	-5.4234896
1	0xbcf0e177	-0.029404385
2	0xbc8b8b13	-0.01703409
3	0x3dc64f13	0.09683051
4	0xc042f875	-3.0464146
5	0xbe512fd3	-0.204284
6	0x3d341000	0.04396057
7	0x3e073acc	0.13206023
8	0x3d6d9c11	0.058010165
9	0xbe3c77e7	-0.18405114
10	0xbdb708e1	-0.089372404
11	0xc1806930	-16.051361
12	0xc10ad170	-8.676132
13	0xc0602b92	-3.5026593
14	0xc109c3b0	-8.610275
15	0xbe8f86f4	-0.2803265
16	0xbe0cdc09	-0.13755812
17	0xbe8794df	-0.26480767
18	0x3cc3d21e	0.023903903
19	0xbcccae3e	-0.024985429
20	0xbeb3251d	-0.34989253
21	0x3c536b6f	0.012904032
22	0xbdcf3b93	-0.10118785
23	0x3c2d6d56	0.01058515
24	0xbe16228d	-0.14661618
25	0xbdb3a078	-0.08770841
26	0xc0b8252e	-5.7545385
27	0xbba8bb7c	-0.005149303
28	0xbd32e7fc	-0.04367827
29	0x3f383c9f	0.719675
30	0xbbe78b63	-0.0070661767
31	0xbcf1d3ab	-0.029519876
32	0xbd7f9100	-0.062394142
33	0xbe19cd62	-0.15019754
34	0xc05c39a0	-3.4410172
35	0x3d94295f	0.072344534
36	0xbea8d03c	-0.3297137
37	0xbde52f8d	-0.1119071
38	0xbdc3b797	-0.09556501
39	0x3d7c80af	0.06164616
40	0xc00c0d47	-2.1883104
41	0x3da95a78	0.08269209
42	0xc0a23adf	-5.0696864
43	0x3d263b3b	0.04058383
44	0xc08f3d93	-4.4762664
45	0xbe66c954	-0.22537738
46	0xbda7e289	-0.08197505
47	0xbe003089	-0.12518515
48	0xc0889608	-4.2683144
49	0xc15e2d31	-13.886033
50	0x3b935a91	0.0044968803
51	0xbd1fa1ca	-0.038972653
52	0x3cff3035	0.031150917
53	0xbea12b77	-0.31478474
54	0xbe7a9a65	-0.2447296
55	0x3c6aaefd	0.014323947
56	0x3c09297a	0.008371705
57	0xbdd9836f	-0.10620772
58	0xc114fe10	-9.312027
59	0xbe07fa0e	-0.13278982
60	0xbde12a3f	-0.10994386
61	0xbd11dc72	-0.035610624
62	0xbcbfb013	-0.023399388
63	0xbd7fc742	-0.062445886
64	0xbd9937a6	-0.07481317
65	0x3d1a0980	0.037606716
66	0xc0b81b89	-5.753361
67	0xbe34fc4f	-0.17674373
68	0xc0d126e5	-6.535998
69	0x3d4e00b3	0.050293636
70	0xbee52628	-0.44755673
71	0x3d84fac4	0.06493142
72	0xbe4ee82d	-0.20205756
73	0xbda03c13	-0.07823958
74	0xbcee1ba0	-0.029065907
75	0xbcd706ca	-0.026248354
76	0xbdb9c23e	-0.09070252
77	0xbe25b3aa	-0.16181818
78	0xc0e52350	-7.1605606
79	0x3dd10155	0.10205332
80	0x3cc8c780	0.024509192
81	0xc0a93a8d	-5.2883973
82	0xbe71ead6	-0.23624739
83	0xc0ef4d4c	-7.4781857
84	0xbd67a87a	-0.056557156
85	0x3b909cc1	0.004413218
86	0x3d47e6e5	0.048804183
87	0xbfe2417b	-1.7676233
88	0xbd42c081	-0.047546867
89	0xbd4fefca	-0.05076579
90	0xc0cc1a1b	-6.3781867
91	0xbf9cf40f	-1.2261981
92	0xbe080ef3	-0.13286953
93	0xbd7fe15d	-0.062470783
94	0x3e78a5f2	0.24282053
95	0xbfe9f301	-1.8277284
96	0xbfa6dff0	-1.303709
97	0x3d42c2fa	0.047549225
98	0xbb816894	-0.0039492343
99	0xc11160fe	-9.08618
100	0x3d700f9c	0.058608636
101	0x3bb6c22f	0.0055773477
102	0x3c2c1812	0.010503786
103	0xbe64315b	-0.22284453
104	0x3b84c32b	0.004051586
105	0xbd3e8e2d	-0.04652231
106	0xc0af8761	-5.4852757
107	0x3d1d9021	0.03846753
108	0x3c808504	0.015688427
109	0x3d60b810	0.054863036
110	0xc0784258	-3.8790493
111	0xbccebbcd	-0.025236035
112	0xbceb08f8	-0.0286908
113	0xbe83ee9e	-0.25767988
114	0xc1284f4e	-10.5193615
115	0xc0e29a00	-7.081299
116	0xc0a9d458	-5.307171
117	0xbfd1a607	-1.6378793
118	0xc0d50d07	-6.6578403
119	0x3a8eeac5	0.0010903707
120	0x3da7ae78	0.08187574
121	0xbd5fb4f6	-0.054615937
122	0x3e3be460	0.18348837
123	0xbeabf120	-0.335824
124	0xbec1b9fc	-0.37837207
125	0xbf7a890a	-0.97865355
126	0xbf7f475e	-0.9971827
127	0xbdc697ff	-0.0969696
128	0xc0e003f1	-7.000481
129	0x3c4ad98c	0.012380969
130	0xbd71c28e	-0.059023432
131	0xc096c16c	-4.711111
132	0xc000ebe2	-2.0143971
133	0xbe8a0d87	-0.26963446
134	0xbd393744	-0.04521872
135	0x3e181d67	0.14854966
136	0x3d51007b	0.05102585
137	0xbe70f1e5	-0.23529775
138	0xbd819aec	-0.06328377
139	0xc181ace7	-16.209425
140	0xc121e74b	-10.118968
141	0xc091c236	-4.5549574
142	0xc12126cf	-10.071975
143	0xbea3dc43	-0.32003984
144	0xbe21f192	-0.15814808
145	0xbe4a42aa	-0.19751993
146	0x3f595939	0.8490177
147	0xbd3e15ad	-0.04640739
148	0xbeb02452	-0.3440271
149	0xbced6c62	-0.028982345
150	0xbde5ea8f	-0.11226379
151	0x3d1bd9f2	0.038049646
152	0x3dff8f97	0.124785595
153	0xbd71479d	-0.058906186
154	0xc0fbfb14	-7.874399
155	0xbda333d2	-0.07968868
156	0xbcd34d05	-0.025793562
157	0xbd87ffd9	-0.06640596
158	0x3a9dbd64	0.0012034592
159	0xbb60e545	-0.0034316343
160	0x3c568799	0.013093852
161	0xbe135e24	-0.1439138
162	0xbf357a94	-0.70890164
163	0x3cf005ed	0.0292997
164	0xbe93383c	-0.2875384
165	0xbe1fde85	-0.15612228
166	0xbdc7e08b	-0.09759625
167	0xbc86e3df	-0.01646608
168	0xc02592c1	-2.5870821
169	0x3d78941f	0.060688134
170	0xc0b76b68	-5.731861
171	0x3d25a5a0	0.040441155
172	0xc0a78f45	-5.236239
173	0xbe6c9ba9	-0.23106255
174	0xbe08f4a2	-0.1337457
175	0xbdce4255	-0.100712456
176	0xc0916798	-4.5438957
177	0xc1629377	-14.161002
178	0x3bdb4525	0.0066915923
179	0xbda24541	-0.079233654
180	0x3d2cbaef	0.04217046
181	0xbe5e6f42	-0.21722129
182	0xbe9442dc	-0.2895726
183	0x3c5b2c47	0.013377256
184	0xbc5fe015	-0.013664265
185	0xbe83da37	-0.25752422
186	0xc165cc1b	-14.36233
187	0xbe1f2388	-0.15540898
188	0xbda2dbe2	-0.079520956
189	0xbd4bf18f	-0.049790915
190	0xbdbb73e7	-0.09152966
191	0xbdd91ec7	-0.106015734
192	0x3bb63b08	0.0055612363
193	0xbb13c7fc	-0.002254962
194	0xc0d828b5	-6.754969
195	0xbe3e626b	-0.18592231
196	0xc09def97	-4.935497
197	0xbdbdb91c	-0.092638224
198	0xbf64ac27	-0.89325184
199	0x3c1dab0f	0.009623303
200	0xbe623bc5	-0.22093113
201	0x3c21c62d	0.009873909
202	0xbde91df4	-0.11382666
203	0xbd45e1a2	-0.048310883
204	0xbded5f9a	-0.115905
205	0xbdbf75a6	-0.093486115
206	0xc051a9bf	-3.2759855
207	0x3e06b0a3	0.13153319
208	0x3d0ae781	0.033912186
209	0xc0c61cf8	-6.191036
210	0xbeb74a03	-0.35798654
211	0xc0fbaa68	-7.8645515
212	0x3cee4a74	0.029088236
213	0x3d03f80a	0.03221897
214	0x3d4721f9	0.048616383
215	0xc00abb2f	-2.1676748
216	0xbd8d3758	-0.068953216
217	0xbc2be91e	-0.010492591
218	0xc0b8c7af	-5.7743754
219	0xbf184a92	-0.59488785
220	0xbd87ef9a	-0.06637497
221	0xbd8dbf2f	-0.06921231
222	0xc0775b63	-3.8649528
223	0xc0725972	-3.7867093
224	0xc09886ae	-4.7664404
225	0x3d9044ed	0.070443965
226	0x3d143f80	0.03619337
227	0xc11a8f9f	-9.660064
228	0x3dcb9576	0.09940617
229	0x39f84174	0.00047351012
230	0xbdfd8840	-0.12379503
231	0xbe4caec6	-0.19988546
232	0xbd56db2f	-0.052455124
233	0x3da8100c	0.08206186
234	0xc0c25107	-6.072391
235	0xbcbd0f31	-0.023078533
236	0x3ca937a6	0.020656418
237	0x3da5680d	0.08076487
238	0xc0e211fb	-7.064695
239	0xbd3c7926	-0.046013974
240	0x3b0a80ed	0.0021133975
241	0xbe383ddc	-0.17992347
242	0xc13cab07	-11.791755
243	0xc103f92d	-8.248334
244	0xc0ef819b	-7.484571
245	0xbfd1431a	-1.6348603
246	0xc0c2502b	-6.072286
247	0xbc89f5fa	-0.016840924
248	0x3d0c7d0f	0.034298953
249	0xbd94c30d	-0.072637655
250	0xbef52401	-0.4787903
251	0xbf0a99b1	-0.54140764
252	0xbda048d6	-0.07826392
253	0xbfb211f0	-1.3911724
254	0xbf8420ee	-1.0322549
255	0x3d87455b	0.066050254

net.4.bias f4 [181]
0	0xbf19fdc5	-0.60152847
1	0xbf270133	-0.65236205
2	0xbf353527	-0.7078423
3	0xbfe1b5ad	-1.7633568
4	0xc00e7c29	-2.2263281
5	0x3f816bb0	1.0110989
6	0xbf8b8d1a	-1.0902436
7	0xbf805925	-1.0027205
8	0xbff34c60	-1.9007683
9	0xbf6e5063	-0.9309141
10	0xbf8a4bd1	-1.0804387
11	0x3fd4c18f	1.6621569
12	0xbfb852a7	-1.4400223
13	0x3edb29b0	0.42805243
14	0xbefe09fb	-0.4961699
15	0xbf324e66	-0.69650877
16	0xbf8db239	-1.1070014
17	0xbfab43ab	-1.3380026
18	0x3fa487ba	1.285392
19	0x3fd1183e	1.6335523
20	0x4006433c	2.0978537
21	0xc003e97a	-2.0611253
22	0xbf4f57b8	-0.80993223
23	0xbf4228f4	-0.7584374
24	0xbf54c2b8	-0.8310962
25	0x400c1883	2.188996
26	0xbfada135	-1.3564821
27	0xbfd1cb36	-1.639014
28	0xbfcbc42a	-1.591924
29	0xbf90522d	-1.1275078
30	0xbfb147fb	-1.3850092
31	0xbfb5e77f	-1.4211272
32	0xbfb2cbce	-1.3968446
33	0xbfc331b7	-1.5249547
34	0xc029a2ff	-2.6505735
35	0xbf92b409	-1.1461192
36	0xbfee7663	-1.8629879
37	0x401a88af	2.4145925
38	0x3fe125fe	1.7589719
39	0x3ff49b65	1.9109923
40	0x3f1fd430	0.6243315
41	0xbecad848	-0.39618134
42	0x3ff6354c	1.9235015
43	0x3f56c03f	0.83887094
44	0x3fa9c0a1	1.3261911
45	0x3f2b6242	0.66946805
46	0x3fc7337e	1.5562589
47	0x3f787fc4	0.97069955
48	0x3feff709	1.8747264
49	0x3f22f874	0.6366036
50	0x3f95c451	1.1700536
51	0x3f6dbdbb	0.9286763
52	0x3f94124b	1.1568083
53	0x3fc830e9	1.5639926
54	0x3fc39c06	1.528199
55	0x400c6ae5	2.1940243
56	0x4027058f	2.6097143
57	0x4013f709	2.3119528
58	0x3e04581e	0.12924239
59	0x3ee2d80b	0.44305453
60	0x3f90f4ec	1.1324744
61	0x3fa31363	1.2740291
62	0x403231ee	2.7842975
63	0x3f9a03df	1.2032431
64	0x40259f7b	2.587859
65	0x400fe868	2.24856
66	0x3ea0b8c9	0.3139098
67	0x4002ee14	2.0457811
68	0x40313159	2.768637
69	0x4025c4d3	2.5901382
70	0x401f798f	2.4917943
71	0xbfb34e35	-1.4008242
72	0xbf6f3c38	-0.9345126
73	0xbfa4d3a4	-1.2877088
74	0x3d5e6a0d	0.054300357
75	0xbfbe60dc	-1.4873309
76	0x3dec2dbd	0.115321614
77	0xbfda930b	-1.7076124
78	0xbf0c27a8	-0.5474801
79	0x3f237ab7	0.63859123
80	0x3f9501ff	1.1641234
81	0xbfef184b	-1.8679289
82	0xbecd8dc6	-0.40147227
83	0x3f332ab9	0.69987065
84	0x3df12bbe	0.11775921
85	0x3f2f6fad	0.6852978
86	0xbecee579	-0.4040945
87	0xbf4d8991	-0.80288035
88	0x3f7a5d8e	0.97799003
89	0xbe853b6e	-0.26021904
90	0xbf1e98cd	-0.61951905
91	0x3f3e3c8d	0.74311143
92	0x3fca9205	1.5825812
93	0x3f4b730f	0.7947244
94	0x3d8db73e	0.06919716
95	0xbf22015a	-0.6328331
96	0xc005e994	-2.0923815
97	0xbf571a21	-0.84024245
98	0x3d7b88a8	0.061409622
99	0xbf18c901	-0.5968171
100	0x3b0d8de4	0.0021599466
101	0xbf885403	-1.0650638
102	0x3f3a23b0	0.72710705
103	0x3fc7cbae	1.5609033
104	0xbee572bb	-0.44814095
105	0x3fe960a7	1.8232621
106	0x401b72c6	2.4288802
107	0xbe7a9d45	-0.24474056
108	0x3f1ddd83	0.61666125
109	0x3fefe50e	1.8741777
110	0x3f48fb9e	0.7850894
111	0x3d9b19d2	0.07573284
112	0x3f0efb65	0.5585235
113	0xbf0276fe	-0.5096282
114	0x3f9f247c	1.2433009
115	0x3fcfbb6f	1.6229075
116	0xbfbd31f4	-1.478087
117	0x3f38bdb8	0.7216449
118	0x3c1b6aa1	0.0094858715
119	0x3f358335	0.7090333
120	0xbdcf99f1	-0.10136784
121	0x3fa30fb5	1.2739168
122	0xbf95a363	-1.1690487
123	0x3f73d9b9	0.95254093
124	0x3f485262	0.78250706
125	0x3fd9c6a6	1.7013748
126	0x3aad14b1	0.0013205019
127	0xbf985e22	-1.1903727
128	0xbe5fd325	-0.21857889
129	0x3ff46a6b	1.9094976
130	0xbedd910e	-0.4327473
131	0x3f47d5b6	0.7806047
132	0x3f9a82ed	1.2071205
133	0x3f923b9d	1.1424443
134	0x3f98bdf5	1.193297
135	0xbf280888	-0.6563802
136	0xbf5289ff	-0.82241815
137	0xbeaa03c3	-0.33205995
138	0x3fbfff29	1.4999744
139	0x3f9d55d0	1.2291813
140	0x3e8a1fdc	0.26977432
141	0x402a334b	2.6593807
142	0x4062b70b	3.542422
143	0x4085bc62	4.179246
144	0x404afc96	3.1716666
145	0x3fc87c0f	1.566286
146	0x404284c5	3.0393536
147	0x405c9143	3.446366
148	0x40296111	2.6465495
149	0x3fd83f8c	1.6894393
150	0x402a681d	2.6626046
151	0x408748c2	4.2276316
152	0x40973c4d	4.726111
153	0x4036809d	2.8516
154	0x403b3ffa	2.9257798
155	0x40c6c9e6	6.212146
156	0x407fd142	3.997147
157	0x40494d74	3.1453524
158	0x407a14cd	3.9075196
159	0x4061a796	3.5258536
160	0x40474b41	3.1139681
161	0x40680176	3.6250892
162	0x4046aa37	3.104139
163	0x4035c96e	2.8404193
164	0x409388d0	4.6104507
165	0x403bf155	2.9366047
166	0x4061d9ce	3.5289187
167	0x40047bd8	2.0700588
168	0x3ef2fe2a	0.47459537
169	0x400fb90b	2.2456691
170	0x3fea7fb9	1.8320228
171	0x4012bcba	2.292769
172	0x3f280f33	0.6564819
173	0x3fea3bea	1.8299534
174	0x3fd96787	1.6984719
175	0xc0034f40	-2.051712
176	0x3e778101	0.24170305
177	0x3f9e4d69	1.2367374
178	0xbf1667ea	-0.5875231
179	0x401cc4a4	2.449502
180	0xbfecf105	-1.8511053
